SE3GNN_model.pth (torch, 27788 bytes, 13 tensors)

se3_gnn1.weight f4 [1024]
0	0x3f85b91a	1.0447114
1	0xbdf5cd20	-0.12002015
2	0xbe1f8c91	-0.15580966
3	0x3f1b6a5a	0.60709155
4	0x3dd01c02	0.10161592
5	0xbf206187	-0.62648815
6	0x3e8eb96f	0.2787585
7	0x3f037d82	0.51363385
8	0xbd1433b8	-0.036182135
9	0x3ff295f6	1.8952014
10	0x3f851755	1.0397745
11	0x3ea1c82e	0.31598037
12	0x3f0acf50	0.54222584
13	0xbf4c75de	-0.7986735
14	0x40064f30	2.0985832
15	0xbedb4822	-0.4282847
16	0x3f2123d6	0.62945306
17	0x3e271c9f	0.16319512
18	0xbe5a565d	-0.21322007
19	0xbfe44e49	-1.7836391
20	0x3f0a6cc5	0.5407222
21	0x3f003232	0.5007659
22	0x3f8289b4	1.0198274
23	0xbec613ef	-0.38687083
24	0xbf18fbf2	-0.5975944
25	0xbfd94ae4	-1.697598
26	0x3f436fe6	0.7634262
27	0xc036ab4e	-2.8542056
28	0xbee67093	-0.45007762
29	0xbdefe551	-0.117136605
30	0x3ef4890b	0.47760805
31	0x3f599e22	0.85006917
32	0xbe8d5819	-0.27606276
33	0x3f98a383	1.19249
34	0x3ead6499	0.33865812
35	0x3fc84098	1.5644712
36	0x3f0ed68a	0.5579611
37	0x3e8327f8	0.2561643
38	0x3e437ccf	0.1909058
39	0x3fa1d1b5	1.2642123
40	0xbef5d7f2	-0.48016316
41	0x3f86d073	1.0532364
42	0x3f75c084	0.9599688
43	0x3fdcf2b7	1.7261571
44	0xbd441cd6	-0.047879063
45	0x3e9eacb8	0.3099115
46	0xbeac7159	-0.33680227
47	0xbf27e775	-0.6558755
48	0x3ddfc484	0.10926154
49	0x3f33812a	0.70118964
50	0xbfb0fdf5	-1.3827502
51	0x3f53fe99	0.8281036
52	0x3e38e215	0.18054993
53	0x3fa8b14b	1.3179106
54	0x3f151a43	0.582432
55	0x3e0041b3	0.12525062
56	0x3fb94826	1.4475143
57	0x3f3db393	0.74102134
58	0x3feb4255	1.8379618
59	0x3f475a1a	0.7787186
60	0xbfb675d6	-1.4254711
61	0x3f437a3b	0.76358384
62	0x3f4861f4	0.78274465
63	0x3fcdd38e	1.6080186
64	0xbf38fa85	-0.7225726
65	0x3f52374b	0.8211562
66	0xbeb9f1aa	-0.36317188
67	0x3f3e3346	0.7429699
68	0x3edee1a8	0.43531537
69	0xbdc7ee39	-0.09762234
70	0xbfad3b97	-1.353381
71	0x3da7c9a0	0.08192754
72	0x3e7ed7dc	0.24887031
73	0xbfa42d43	-1.2826313
74	0x3f805f9a	1.0029175
75	0x3f5b3524	0.8562796
76	0xbec6ff96	-0.38866872
77	0x3f92366d	1.142286
78	0x3f6a7b04	0.91593957
79	0x3e4af15d	0.19818635
80	0x3f499cc1	0.7875481
81	0x3ef7cdfc	0.4839934
82	0x3df7085a	0.1206214
83	0xbdcb9d63	-0.099421285
84	0x3f5548de	0.8331431
85	0x3ec15bb7	0.37765285
86	0x3f3e5257	0.7434439
87	0xbd867d49	-0.06566865
88	0xbfbe6e45	-1.4877402
89	0xbf98787b	-1.1911768
90	0x3ecea107	0.4035723
91	0x3cd9c4a6	0.026583027
92	0x3eefdc80	0.46847916
93	0x3f5771ff	0.8415832
94	0xbec4e794	-0.3845793
95	0xbedd3a30	-0.43208456
96	0x3e6f8668	0.23391116
97	0x3f1c8081	0.6113358
98	0x3f180f09	0.5939794
99	0x3f8a3ac7	1.0799187
100	0x3ff5a551	1.9191076
101	0x3ecdc9c5	0.40193
102	0x3d59026a	0.052980818
103	0x3fc80a06	1.5628059
104	0xbf48a5ee	-0.7837819
105	0xb9fa5c05	-0.00047752276
106	0x3ea63722	0.32463938
107	0xbeb25f91	-0.34838536
108	0x3f816fff	1.0112303
109	0x3f8d2ac0	1.1028671
110	0x3f2fbd73	0.6864845
111	0x3f2e7f27	0.6816277
112	0xbfc1001c	-1.5078158
113	0x3cffcfbb	0.031226983
114	0xbfdb755a	-1.7145188
115	0x3df38b34	0.11891785
116	0xbf9c06fe	-1.2189634
117	0x3ed0f210	0.4080968
118	0xbf88d572	-1.0690138
119	0xc010ea0c	-2.264285
120	0x3f1d4c7b	0.61444825
121	0xbe87a2d9	-0.2649143
122	0x3eab0706	0.33403796
123	0xbe266ae6	-0.16251716
124	0x3d9b8385	0.07593445
125	0x3f40719d	0.7517336
126	0xbf83fc09	-1.031129
127	0x3e9cb3fd	0.3060607
128	0x3dfc9835	0.12333719
129	0xbf9ede21	-1.2411538
130	0xbf271af6	-0.65275514
131	0xbf9af1f2	-1.2105086
132	0x3fb1fbc6	1.390496
133	0x3edd9ad2	0.4328218
134	0xbed8a8d8	-0.42316318
135	0xbf845ff3	-1.0341781
136	0xbd1ae914	-0.037819937
137	0xbf8c518b	-1.0962385
138	0xbdb13b83	-0.08653929
139	0x3f8dfc8e	1.1092699
140	0x3fb54359	1.4161178
141	0xbf017a13	-0.50576895
142	0x3ec83779	0.39104822
143	0x3f9e6201	1.2373658
144	0xbf32cf55	-0.69847614
145	0x3fdabfab	1.7089742
146	0xbed58034	-0.41699374
147	0xbf5c6a53	-0.8609974
148	0x3e126df0	0.1429975
149	0x3f6f5157	0.9348349
150	0xbf0f070f	-0.55870146
151	0xbe87f06a	-0.2655061
152	0x3f0d56f0	0.5521078
153	0xbf930202	-1.1484988
154	0x3f4801d8	0.78127813
155	0x3e6e110e	0.23248693
156	0xbf96907b	-1.1762842
157	0xbf0dec81	-0.55439
158	0xc01114a8	-2.2668858
159	0xbedc2d6e	-0.4300341
160	0xbf96a59d	-1.1769291
161	0xbfc15280	-1.5103302
162	0x3f386353	0.72026557
163	0xbf389836	-0.72107255
164	0xbdf865f9	-0.12128825
165	0x3e16a056	0.14709601
166	0x3e748281	0.23877908
167	0xbfa7fbd8	-1.3123732
168	0xbef4e0f4	-0.47827876
169	0xbf1b40ae	-0.6064557
170	0x3f83fb61	1.031109
171	0x40263077	2.596708
172	0x3f0c2c79	0.5475536
173	0xbfa43e3f	-1.2831496
174	0xbf146a4c	-0.57974696
175	0x3f952818	1.1652861
176	0x3eecd27a	0.4625433
177	0xbf590edb	-0.8478829
178	0x3f071a4d	0.52774507
179	0xbf889524	-1.0670514
180	0x3f1447e9	0.57922226
181	0xbebdb9b1	-0.37055734
182	0xbdd00e4b	-0.10158976
183	0xbffba845	-1.9660727
184	0xbe108e9d	-0.14116903
185	0xbca6a5f1	-0.020342799
186	0xbf49932e	-0.78740203
187	0xbcad5da5	-0.021162817
188	0x3f81b284	1.0132604
189	0x3f183b61	0.59465605
190	0x3f799f5e	0.975088
191	0xbf00d5ec	-0.5032642
192	0xbeb3dbdb	-0.35128674
193	0xbf4fe388	-0.8120656
194	0xbea59060	-0.32336712
195	0x3edb2244	0.4279958
196	0x3e457c1c	0.19285625
197	0xbe7e630e	-0.24842474
198	0x3ecf3197	0.40467522
199	0x3fca2023	1.5791057
200	0xbeae697e	-0.3406486
201	0x3e806951	0.2508035
202	0xbfa0c89b	-1.256122
203	0xbea459e3	-0.32099828
204	0x3fc74e2d	1.5570732
205	0xbed0e17e	-0.40797037
206	0x3f94deb3	1.1630462
207	0x3f9a9871	1.2077771
208	0x3f69479d	0.911249
209	0xbe47d846	-0.19516096
210	0xbe1d180c	-0.15341204
211	0x3fcf4a8f	1.6194628
212	0x3eeb63f0	0.45974684
213	0x3fd53689	1.6657268
214	0x3f7f6656	0.9976553
215	0xbf8db6a1	-1.1071359
216	0xbe70c17e	-0.23511311
217	0xbe651ece	-0.22375032
218	0xbf3758ff	-0.7162017
219	0xbe4f2324	-0.20228249
220	0xbcbbcea4	-0.022925682
221	0x3f5297bd	0.82262784
222	0xbd7f4e97	-0.06233081
223	0x3f237cfb	0.6386258
224	0xbeef4108	-0.46729302
225	0x4014148a	2.3137536
226	0x3fb17efd	1.3866879
227	0x3f828e06	1.0199592
228	0x3f048682	0.5176774
229	0x3e880f6d	0.2657427
230	0xbe8e8733	-0.27837524
231	0x3ece5f87	0.40307257
232	0x3e2b9b99	0.16758575
233	0x3f01f5af	0.5076551
234	0xbfb2b689	-1.3961955
235	0x3fa250f9	1.2680961
236	0x3f187a72	0.59561837
237	0xbf4864e9	-0.78278977
238	0xbf53df0f	-0.82762235
239	0xbf6eecc9	-0.93330055
240	0x3f43faf6	0.7655481
241	0xbea3f2ba	-0.32021123
242	0x3e5c9381	0.21540643
243	0x3f2c0f83	0.6721117
244	0x3f31cee0	0.6945629
245	0x3fdd4f27	1.728978
246	0x3ff64e0d	1.9242569
247	0xbeee7f9e	-0.4658174
248	0x3f028a4c	0.50992274
249	0xbfadc99e	-1.3577154
250	0xbfb3ed18	-1.405673
251	0xbeb9f76b	-0.36321577
252	0x3fc8318c	1.564012
253	0x3bc02ab8	0.0058644675
254	0x3ef8d463	0.48599538
255	0x3eb16c2d	0.34652844

se3_gnn1.output_mask f4 [32]
0	0x3f800000	1.0
1	0x3f800000	1.0
2	0x3f800000	1.0
3	0x3f800000	1.0
4	0x3f800000	1.0
5	0x3f800000	1.0
6	0x3f800000	1.0
7	0x3f800000	1.0
8	0x3f800000	1.0
9	0x3f800000	1.0
10	0x3f800000	1.0
11	0x3f800000	1.0
12	0x3f800000	1.0
13	0x3f800000	1.0
14	0x3f800000	1.0
15	0x3f800000	1.0
16	0x3f800000	1.0
17	0x3f800000	1.0
18	0x3f800000	1.0
19	0x3f800000	1.0
20	0x3f800000	1.0
21	0x3f800000	1.0
22	0x3f800000	1.0
23	0x3f800000	1.0
24	0x3f800000	1.0
25	0x3f800000	1.0
26	0x3f800000	1.0
27	0x3f800000	1.0
28	0x3f800000	1.0
29	0x3f800000	1.0
30	0x3f800000	1.0
31	0x3f800000	1.0

se3_gnn2.weight f4 [1024]
0	0x3f1ce8c2	0.6129266
1	0xbf5adcc5	-0.8549312
2	0x3e68d997	0.22739254
3	0x3a8ffa92	0.001098471
4	0x3f826abf	1.0188826
5	0xbf904930	-1.1272335
6	0xbfb330f8	-1.3999319
7	0x3f643b51	0.8915301
8	0xbfac0256	-1.3438213
9	0x3edf8342	0.4365483
10	0xbe449a15	-0.19199403
11	0xbf9b5e43	-1.2138141
12	0x3f1449a2	0.57924855
13	0xbdb30c3a	-0.087425664
14	0xbfd0c6a6	-1.6310623
15	0x3fa9b6b9	1.3258888
16	0xbe1f49c4	-0.15555483
17	0x3f3df1fc	0.74197364
18	0xbf451304	-0.7698214
19	0xbd460043	-0.048340093
20	0x3f296be9	0.6618028
21	0x3f7b4f29	0.98167664
22	0xbfcee5bc	-1.6163859
23	0xbf834012	-1.0253928
24	0xbf97d462	-1.1861689
25	0xbfad524b	-1.3540739
26	0x3f5bb451	0.85822016
27	0x3fb002e4	1.3750882
28	0x4022919c	2.5401373
29	0xbe1b8d19	-0.15190543
30	0x3f8f879d	1.1213261
31	0xbf6dedc9	-0.92940956
32	0x3f3f2d4f	0.7467851
33	0xbfbb9561	-1.4654962
34	0x3fb7f7a4	1.4372449
35	0x3f8f6b11	1.1204549
36	0x3f32bf82	0.6982347
37	0xbf225ebc	-0.63425803
38	0x3f9591cb	1.1685117
39	0x3fab1d3d	1.3368298
40	0x40390c9d	2.8913949
41	0xbe4f48ca	-0.2024261
42	0x3fd04c15	1.6273218
43	0xbfb3df4d	-1.4052521
44	0x3eebb8c3	0.460394
45	0x3ee78054	0.45215094
46	0xbffbc012	-1.966799
47	0xbf35b80c	-0.7098396
48	0xbeb6c96e	-0.35700554
49	0x3ff22874	1.8918595
50	0x3ea7f36b	0.328029
51	0xbfa32052	-1.2744238
52	0xbdb2da8a	-0.08733089
53	0x3f85c4af	1.0450648
54	0x3fe9dbf5	1.827025
55	0xbd588d7e	-0.052869312
56	0xbfa3541f	-1.2760047
57	0xbb3b67dd	-0.0028595843
58	0x3f8be593	1.0929435
59	0x3fb56069	1.4170047
60	0xc00d5098	-2.208044
61	0x3e87cdc7	0.26524183
62	0xbfc03fb3	-1.501944
63	0xbf8cb074	-1.0991349
64	0xbfd79c86	-1.6844642
65	0xbf8b5ff8	-1.0888662
66	0xc007e9b4	-2.123639
67	0x3f567bc2	0.8378259
68	0xbe26cee1	-0.16289856
69	0x3e8780f1	0.26465562
70	0x3c6cf099	0.01446166
71	0xbefa75da	-0.4891804
72	0x3e689015	0.22711213
73	0xbdef3353	-0.11679711
74	0x3fdae1b5	1.710013
75	0x3eb7bd76	0.35886735
76	0x400f31ae	2.2374072
77	0xbf7563c7	-0.95855373
78	0x3e90b8ae	0.282659
79	0xbf9dde92	-1.2333548
80	0x3ec07f7b	0.3759726
81	0x3f46489a	0.7745453
82	0xbe0d778b	-0.13815133
83	0x3e39b599	0.1813568
84	0xbf4666fa	-0.7750088
85	0xbd8ade7d	-0.067807175
86	0x3cbb7ca7	0.022886587
87	0xbf482c64	-0.78192735
88	0xbbd4836d	-0.0064853937
89	0xbf25b97b	-0.64736146
90	0xbfe7900e	-1.8090837
91	0xbe816873	-0.25275
92	0x3ecca91e	0.39972776
93	0x404b447c	3.176055
94	0x3db8b189	0.09018237
95	0xbe9be284	-0.30446255
96	0x3eea7d0f	0.45798537
97	0x3f45169c	0.76987624
98	0x3fe114b0	1.7584438
99	0x3f463efb	0.7743985
100	0x3fa1096c	1.2581
101	0x3ed6ea62	0.41975695
102	0xbf81f0fb	-1.0151666
103	0x400f1d3a	2.2361588
104	0x3f1cf562	0.61311924
105	0x3ea2a311	0.31765035
106	0xbf9d8273	-1.2305435
107	0xbf284935	-0.65736705
108	0xbfc93c40	-1.5721512
109	0x3f341332	0.7034179
110	0xbf42e9b1	-0.76137835
111	0xbf132498	-0.5747771
112	0xbf1ccfac	-0.6125438
113	0x3fdcdb76	1.7254474
114	0x3fe2ac1a	1.7708771
115	0x3f067cc4	0.5253413
116	0xbdde5802	-0.1085663
117	0x3f2bc137	0.670917
118	0xc0104f7f	-2.254852
119	0xbffef205	-1.9917608
120	0x3f4bc0af	0.79590887
121	0x3ffadcd6	1.9598644
122	0xbf5c6bf5	-0.8610223
123	0xbd3d232f	-0.04617613
124	0x3e4d9d35	0.20079501
125	0xbfb4aedf	-1.4115866
126	0xbfe46223	-1.7842449
127	0x3f4d7955	0.80263263
128	0xbecb19c5	-0.39668098
129	0x4021d847	2.5288255
130	0xbf6a77ae	-0.91588867
131	0x3fb5f444	1.4215169
132	0xbf7d4070	-0.9892645
133	0xbf6bd1a3	-0.92116755
134	0x3f8d6351	1.1045934
135	0xbf69b860	-0.9129696
136	0x3edbc7de	0.42925924
137	0xbe3fc018	-0.18725622
138	0x3e670eaa	0.22564188
139	0x3f5cca3c	0.86246085
140	0x3eec10dc	0.46106613
141	0xbefe20da	-0.4963444
142	0x3dc2f2f8	0.09518999
143	0xbe3cc932	-0.18436125
144	0x3f70ec43	0.94110507
145	0xbf70bf23	-0.9404165
146	0xbeff58ee	-0.49872535
147	0x3fb34c13	1.4007591
148	0xbfd44183	-1.6582493
149	0xbf90dbd1	-1.1317083
150	0x3f3f1bb4	0.74651647
151	0xbf4b3831	-0.79382616
152	0x3fbc22ab	1.469808
153	0x3d4b420e	0.04962354
154	0x3f9d1840	1.2273026
155	0xbf0295c2	-0.5100976
156	0x3ee22572	0.44169194
157	0x3ebaa92b	0.3645719
158	0xbf416119	-0.75538784
159	0x3f9ff8bb	1.2497782
160	0xbef3925a	-0.47572595
161	0x3fe5c997	1.7952145
162	0x3ef36887	0.47540686
163	0x3f1a52f3	0.6028282
164	0xbe308864	-0.17239529
165	0x3fb7d09e	1.436054
166	0xbd7ea341	-0.06216741
167	0x3f6693cc	0.9006927
168	0xbba628c9	-0.00507078
169	0x3fdd7467	1.7301148
170	0xbf85ecba	-1.0462868
171	0x3f56d858	0.83923864
172	0xc007b5d6	-2.1204734
173	0x3ef622f2	0.48073536
174	0xc00b4f2a	-2.1767068
175	0x3ef304f2	0.4746471
176	0x3f864c8c	1.049211
177	0xbefcf410	-0.49404955
178	0x3f49e099	0.78858334
179	0xbe95109d	-0.29114237
180	0x3d179ba3	0.03701366
181	0x3f5ef291	0.87088877
182	0xbe6cd45d	-0.23127885
183	0xbf2cd505	-0.6751254
184	0x3f22f874	0.6366036
185	0x3fd063e8	1.6280489
186	0x3e337e25	0.17528589
187	0xbf349e10	-0.70553684
188	0xbf058f62	-0.5217191
189	0x3ebe86ec	0.37212312
190	0xbf4b4f67	-0.79418033
191	0x3f205233	0.62625426
192	0xbea5c10c	-0.32373846
193	0xbf8707a5	-1.0549208
194	0x3f784d45	0.96992904
195	0xbf1f75c7	-0.6228909
196	0x3ef0a074	0.46997416
197	0x400c5dcf	2.1932256
198	0xbf836bfc	-1.0267329
199	0x3f1c663a	0.61093485
200	0x3fa2e2ee	1.2725503
201	0xbfca48ef	-1.5803508
202	0xbf4714ce	-0.7776612
203	0xbf55f3d6	-0.8357519
204	0xbf4fe453	-0.8120777
205	0xbef76703	-0.4832078
206	0xbd4cc099	-0.049988363
207	0xbf775eda	-0.96629107
208	0x3f41042e	0.75397
209	0x3f9270c2	1.1440661
210	0xbfab5730	-1.3385983
211	0x3ecc3851	0.39886716
212	0x3de6f021	0.1127627
213	0x3e86d0c3	0.26331148
214	0x3cfe6777	0.031055195
215	0x3e9b4d0c	0.3033222
216	0xbf3f8c17	-0.74823135
217	0x3ea0e982	0.31428152
218	0x3e9b054d	0.30277482
219	0xbe0603ca	-0.13087383
220	0xbb917033	-0.004438424
221	0x3f66d094	0.90162015
222	0xbd41e71e	-0.04733955
223	0xbf3d4ec1	-0.73948294
224	0x3ae3597c	0.0017345394
225	0x3f40e452	0.7534839
226	0x40751bf2	3.8298306
227	0xbe4df4db	-0.20112936
228	0x3fddd817	1.733157
229	0x3f7317b9	0.9495807
230	0x3e8c57b2	0.27410656
231	0xbb70ecd0	-0.0036762245
232	0xbec9549b	-0.3932236
233	0x3ee80d27	0.45322534
234	0xbff76d30	-1.9330196
235	0xbf548ab5	-0.8302415
236	0xbf0ecb8e	-0.5577935
237	0x3e2cf7ca	0.16891399
238	0xbf3e8303	-0.7441866
239	0x3fa67220	1.3003578
240	0x3ee4575a	0.44597894
241	0xbfbc5b37	-1.4715337
242	0x3f44048d	0.76569444
243	0xbed0c1f8	-0.40772986
244	0x4009e746	2.1547408
245	0x3f186709	0.5953222
246	0x3e945e3f	0.28978154
247	0xbda235c2	-0.0792041
248	0xbed283a3	-0.41116056
249	0x3fc40ee4	1.5317044
250	0xbf7e078a	-0.99230254
251	0x3f319ecf	0.6938295
252	0xbf762847	-0.9615521
253	0x3ecbdd35	0.39817205
254	0x3f9631d4	1.1733956
255	0xbe0f4748	-0.13992035

se3_gnn2.output_mask f4 [32]
0	0x3f800000	1.0
1	0x3f800000	1.0
2	0x3f800000	1.0
3	0x3f800000	1.0
4	0x3f800000	1.0
5	0x3f800000	1.0
6	0x3f800000	1.0
7	0x3f800000	1.0
8	0x3f800000	1.0
9	0x3f800000	1.0
10	0x3f800000	1.0
11	0x3f800000	1.0
12	0x3f800000	1.0
13	0x3f800000	1.0
14	0x3f800000	1.0
15	0x3f800000	1.0
16	0x3f800000	1.0
17	0x3f800000	1.0
18	0x3f800000	1.0
19	0x3f800000	1.0
20	0x3f800000	1.0
21	0x3f800000	1.0
22	0x3f800000	1.0
23	0x3f800000	1.0
24	0x3f800000	1.0
25	0x3f800000	1.0
26	0x3f800000	1.0
27	0x3f800000	1.0
28	0x3f800000	1.0
29	0x3f800000	1.0
30	0x3f800000	1.0
31	0x3f800000	1.0

conv1.lin_l.weight f4 [32, 2]
0	0x3e2ba951	0.16763808
1	0x3e3b5d26	0.18297252
2	0x3e09b2a8	0.13447058
3	0xbd31f724	-0.043448582
4	0x3ea10f3b	0.31456932
5	0x3edcda2c	0.43135202
6	0xbe31ca9f	-0.1736245
7	0xbe3ebb3e	-0.18626115
8	0x3eb3e4d0	0.35135508
9	0xbc2e238e	-0.010628594
10	0x3bc1aca1	0.0059104715
11	0x3d490901	0.049080852
12	0xbe56ae1e	-0.20964858
13	0xbe0fccaf	-0.14042924
14	0x3e75a280	0.2398777
15	0xbd411b45	-0.047145147
16	0x3e61942c	0.2202918
17	0x3dd02b44	0.10164502
18	0x3ecdedaf	0.402204
19	0x3ec974a4	0.39346802
20	0xbea45971	-0.32099488
21	0xbe978e7d	-0.29600897
22	0x3e9f406b	0.31103835
23	0x3eae5beb	0.34054503
24	0x3dcd48ac	0.10023627
25	0xbd30d54e	-0.043172173
26	0x3cff5a44	0.031170972
27	0xbdfc9ae4	-0.123342305
28	0x3e6e48a1	0.23269893
29	0xbe1971d7	-0.14984833
30	0x3e39ccf9	0.18144597
31	0xbe4fe299	-0.20301284
32	0xbdb8c5c4	-0.09022096
33	0x3d38f520	0.045155644
34	0x3d31b30a	0.043383636
35	0x3dcbd30f	0.099523656
36	0xbb8cb92f	-0.0042945365
37	0x3d257819	0.040397737
38	0x3e81f318	0.25380778
39	0x3e343fe1	0.17602493
40	0xbe00202c	-0.12512273
41	0x3f1d70ec	0.6150043
42	0xbd8bc96a	-0.06825526
43	0xbc8b03d9	-0.016969608
44	0xbf05aa51	-0.5221301
45	0xbeff072f	-0.49810168
46	0xbe942b32	-0.28939205
47	0x3eff804b	0.49902567
48	0x3e9e5851	0.30926755
49	0x3e9fe127	0.31226465
50	0x3e98fa08	0.2987826
51	0x3e9af8ad	0.3026785
52	0xbd7432e9	-0.059618864
53	0x3cb7487f	0.022373436
54	0x3e56f16c	0.20990533
55	0x3ebd5e20	0.36985874
56	0xbb67d728	-0.0035376046
57	0x3b860c56	0.004090826
58	0xbc265aac	-0.010153454
59	0x3df7d4b4	0.12101117
60	0xbd2fa83c	-0.04288505
61	0x3d918348	0.07105118
62	0xbbcbe229	-0.0062220288
63	0x3b9fee2a	0.0048806863

conv1.lin_l.bias f4 [32]
0	0xbfe18cec	-1.7621131
1	0xbe128adc	-0.14310783
2	0x3f6340f2	0.88770974
3	0x3da40e15	0.080104984
4	0x3e8decf7	0.27719852
5	0x3f178923	0.5919363
6	0x3e7bef8d	0.246031
7	0xc00ceda6	-2.202005
8	0x3fdeeada	1.7415421
9	0xbf89053d	-1.0704724
10	0xbf92ee1b	-1.1478914
11	0xbfefe6fa	-1.8742363
12	0xbf4e28c1	-0.80530936
13	0xbf4c3ef9	-0.7978359
14	0xbe91805e	-0.2841825
15	0x3dd0b733	0.101911925
16	0x3e1a8c26	0.15092525
17	0xbf9c1e05	-1.2196661
18	0xbeb2d7e0	-0.34930325
19	0x3c14c29d	0.009079603
20	0x3e9b8c2d	0.30380383
21	0xbde42bef	-0.11141192
22	0xbe014a9e	-0.1262612
23	0x3fb2f7ea	1.3981907
24	0xbf496bec	-0.786803
25	0xbf4009fb	-0.7501523
26	0xbe7ae195	-0.24500115
27	0x3ea340c2	0.31885344
28	0x3af81fba	0.0018930354
29	0xbf8f98cd	-1.1218506
30	0xbfde9d90	-1.7391834
31	0xbc2c7c18	-0.010527633

conv1.lin_r.weight f4 [32, 2]
0	0xbf2f8af5	-0.68571407
1	0x3e9155fe	0.2838592
2	0xbf27a106	-0.6548008
3	0x3f2f4593	0.68465537
4	0xbd22ac06	-0.039714836
5	0x3ebedc39	0.37277392
6	0xbe06b709	-0.1315576
7	0x3f73986b	0.95154446
8	0xbe82e107	-0.25562307
9	0x3e6a0673	0.22854023
10	0xbe918b7b	-0.28426728
11	0xbfb1f142	-1.3901751
12	0xbe36db82	-0.17857173
13	0x3f3ee477	0.7456736
14	0xbf822397	-1.0167111
15	0x3f22dd30	0.63618755
16	0x3e0b7526	0.13618907
17	0x3eb9036b	0.3613542
18	0x3eb5f1e4	0.3553611
19	0x3f33cf45	0.70238143
20	0xbf68a2fb	-0.9087369
21	0xbf384be7	-0.7199082
22	0xbf2b4abc	-0.6691091
23	0xbe80cbce	-0.2515549
24	0xbe23ed14	-0.16008407
25	0xbf8b2a0a	-1.0872204
26	0xbf1222e1	-0.5708447
27	0x3f89b005	1.0756842
28	0xbcf94ac2	-0.030431155
29	0x3ed31abe	0.4123134
30	0xbea76c5c	-0.3269986
31	0xbfc48baf	-1.5355128
32	0x3f1c0a14	0.6095288
33	0xbeb85971	-0.36005738
34	0xbddadb26	-0.106863305
35	0x3f03bb1f	0.514574
36	0x3f0830ca	0.53199446
37	0xbd041a39	-0.03225157
38	0x3f3ce480	0.73786163
39	0xbf668777	-0.9005045
40	0xbf247643	-0.64242953
41	0x3ead0fe1	0.33801177
42	0xbe078d9f	-0.13237618
43	0x3f2adb6d	0.6674107
44	0xbe0bd628	-0.13655913
45	0xbddb8dcf	-0.10720407
46	0xbf3ac787	-0.72960705
47	0x3f1aab2e	0.6041745
48	0x3f46085e	0.7735652
49	0x3f7e0c56	0.99237573
50	0xbf49aa16	-0.78775156
51	0xbf3407ad	-0.7032421
52	0x3f1ee7d4	0.6207249
53	0x3df4776d	0.11936841
54	0xbc967ea5	-0.018370936
55	0xbf0346b1	-0.5127974
56	0x3f086c03	0.5328981
57	0xbeb55fc2	-0.3542462
58	0xbf44ad6b	-0.76827115
59	0xbe9f2f63	-0.3109084
60	0x3eaa1eca	0.33226615
61	0xbf2c906b	-0.67407864
62	0x3f442c5b	0.7663018
63	0xbf1503b2	-0.58208764

conv2.lin_l.weight f4 [32, 32]
0	0x3e887951	0.26655057
1	0x3e50596b	0.2034661
2	0xbc1297d4	-0.008947331
3	0xbe60bd03	-0.21947102
4	0xbe1c7757	-0.152799
5	0xbd342e6a	-0.043989576
6	0xbd2fc700	-0.04291439
7	0xbe4f4f62	-0.20245126
8	0x3e3cb586	0.1842862
9	0x3dc2d3e5	0.09513072
10	0x3dd0a93c	0.10188529
11	0x3e0f2351	0.13978316
12	0x3cdbf8dc	0.026852064
13	0xbd700123	-0.058594834
14	0xbe092e5a	-0.13396588
15	0xbd928bca	-0.07155569
16	0xbd0af780	-0.03392744
17	0xbd2e62b8	-0.042574614
18	0x3d292d43	0.04130293
19	0xbc1ac40b	-0.009446154
20	0xbd1514a8	-0.036396652
21	0x3d2599c4	0.040429845
22	0xbdbab8a6	-0.0911725
23	0x3c83e1c4	0.016098864
24	0xbc42ca2e	-0.011889024
25	0x3c01e9e6	0.007929301
26	0x3d768cc1	0.060192827
27	0x3dd4b0f4	0.10385314
28	0xbc398ded	-0.011325342
29	0xbc41586d	-0.0118008675
30	0x3b8a5e58	0.0042226724
31	0x3e3292a6	0.17438754
32	0xbd2bedc7	-0.04197481
33	0xbd311d8b	-0.043241065
34	0x3cb3967a	0.021922339
35	0x3d99fcf0	0.07518947
36	0x3d575c78	0.05257842
37	0x3d869617	0.06571596
38	0xbdaa9355	-0.083288826
39	0xbd8e8990	-0.06959832
40	0xbdf7dda8	-0.121028244
41	0xbde119a3	-0.10991218
42	0x3d638759	0.055549
43	0xbe04ea55	-0.12980016
44	0x3d9a1c36	0.07524912
45	0xbd54a576	-0.05191561
46	0x3c12d774	0.008962501
47	0xbb9330e7	-0.0044919136
48	0x3cd8ae9c	0.026450448
49	0xbc563ff4	-0.013076771
50	0xbd2d95a1	-0.042379025
51	0xbe04d3c2	-0.12971404
52	0x3d84bacd	0.06480942
53	0x3d83fe3a	0.06444974
54	0x3dd04709	0.10169799
55	0x3e22f447	0.15913497
56	0xbc8af963	-0.01696462
57	0x3e7e06bd	0.24807258
58	0x3de1d5ab	0.11027082
59	0x3c030ee9	0.00799916
60	0x3de4d56a	0.11173518
61	0x3e8ab82e	0.27093643
62	0xbd86016d	-0.06543241
63	0xbc12ed40	-0.008967698
64	0x3e12ee2f	0.14348672
65	0x3dcb741c	0.099342555
66	0xbe954321	-0.29152778
67	0xbc45ce33	-0.0120730875
68	0x3d899d5a	0.067194656
69	0xbd896e84	-0.06710532
70	0xbe0f7b4b	-0.14011876
71	0xbdf06230	-0.11737478
72	0x3d4cf6fc	0.05004023
73	0xbcb23da5	-0.02175791
74	0x3d774339	0.060366843
75	0xbe02ff04	-0.12792593
76	0x3d631b6e	0.05544608
77	0xbc6cb40b	-0.014447222
78	0x3e52826b	0.20557563
79	0xbdcf5994	-0.101245075
80	0xbdb3bbb0	-0.08776033
81	0x3d305a80	0.043055058
82	0xbd910d9a	-0.070826724
83	0x3e529af3	0.20566921
84	0x3e0728ba	0.1319913
85	0x3d3ef200	0.046617508
86	0x3d3ced1f	0.046124574
87	0x3e69f5a7	0.22847615
88	0x3da46ab1	0.08028162
89	0x3df3eacb	0.119100176
90	0xbdccd8dc	-0.100023
91	0x3e55ed09	0.20891203
92	0x3bf29487	0.0074029597
93	0xbdcb103c	-0.09915206
94	0xbc0d3af8	-0.008620016
95	0x3defe88d	0.117142774
96	0xbc98f31b	-0.01867061
97	0x3d9ed463	0.07755353
98	0xbcc2546a	-0.023721892
99	0xbce45e87	-0.027877105
100	0xbccb38cb	-0.024807354
101	0xbdec9ff5	-0.11553947
102	0xbc4b6238	-0.012413554
103	0xbcadf721	-0.021236004
104	0xbbbd7db5	-0.0057828077
105	0xbc444a50	-0.011980608
106	0xbe3a76e2	-0.18209413
107	0x3e481b18	0.19541585
108	0xbd94fb50	-0.072744966
109	0x3d01d817	0.03170022
110	0x3d10c557	0.035344448
111	0x3d6aef0d	0.057356883
112	0x3ae29a00	0.0017288327
113	0xbe0301b1	-0.12793614
114	0xbd450479	-0.04809997
115	0xbb9d0ea4	-0.004793005
116	0xbd715251	-0.058916394
117	0xbc66d16e	-0.014088018
118	0xbddcbdda	-0.10778399
119	0x3d84b557	0.064799
120	0xbc293430	-0.010327384
121	0xbd917b9c	-0.07103655
122	0x3db21b9f	0.086966746
123	0xbe0b91eb	-0.13629882
124	0xbc2a3da1	-0.01039067
125	0xbd182490	-0.037144244
126	0x3c7fadf6	0.01560544
127	0x3da31e02	0.07964708
128	0x3d19b87b	0.03752945
129	0xbd479378	-0.04872462
130	0xbd5f3a66	-0.054499052
131	0xbc8c2e08	-0.017111793
132	0x3da7fa97	0.08202093
133	0xbdcf4ade	-0.10121702
134	0x3c0a4916	0.008440277
135	0x3c98f6eb	0.018672427
136	0xbe93eb8e	-0.2889065
137	0xbd86c111	-0.06579793
138	0x3e4b01bf	0.19824885
139	0xbe496700	-0.19668198
140	0xbdf0c3ad	-0.11756072
141	0x3cdeda4f	0.027203707
142	0xbe8562d8	-0.26051974
143	0xbd0b6d6f	-0.03403991
144	0xbc988965	-0.018620202
145	0x3d1d5d55	0.038419086
146	0xbbcb9dc8	-0.0062138774
147	0x3e1ddcf3	0.15416317
148	0xbd3b9a49	-0.045801435
149	0xbe98e8a4	-0.2986499
150	0x3e040398	0.12891996
151	0x3e181ce4	0.14854771
152	0xbe40a2d5	-0.18812115
153	0x3f0738a1	0.52820784
154	0x3ad3e94e	0.0016167553
155	0x3e008064	0.12548977
156	0x3d6d910d	0.05799966
157	0x3d9aab16	0.07552163
158	0x3d497edc	0.04919325
159	0x3cf6feab	0.030150732
160	0x3ca0d821	0.019634308
161	0x3d2e404d	0.04254179
162	0x3dacdde1	0.084407575
163	0xbd4d12b5	-0.05006667
164	0xbda0bb76	-0.07848255
165	0xbc76e61a	-0.015069509
166	0xbd0cf3d7	-0.03441223
167	0xbdb86db7	-0.090053014
168	0xbc8e9b79	-0.01740812
169	0xbca10f03	-0.019660478
170	0xbd8150d0	-0.06314242
171	0xbc464dd9	-0.012103521
172	0x3df64749	0.12025315
173	0xbd3fe99b	-0.046853643
174	0xbdd00d61	-0.10158802
175	0xbd242876	-0.04007765
176	0x3cb35041	0.021888854
177	0xbd857150	-0.06515753
178	0xbc2a5f8d	-0.010398758
179	0x3d51315a	0.051072456
180	0xbdde209c	-0.108460635
181	0x3d1095e2	0.03529919
182	0x3d31f3f9	0.04344556
183	0x3c81eb7d	0.01585936
184	0x3cca2837	0.024677379
185	0x3c1e8630	0.0096755475
186	0x3d5e2efe	0.054244034
187	0xbdbd60ae	-0.09246956
188	0xbd64dbba	-0.05587361
189	0xbd21b881	-0.039482597
190	0xbd7ab562	-0.061208136
191	0x3cbc953d	0.023020381
192	0xbd260783	-0.040534507
193	0xbc44ae92	-0.012004511
194	0x3e821b79	0.25411585
195	0xbdd7189c	-0.10502741
196	0x3cae999c	0.021313481
197	0xbdf37ea8	-0.11889392
198	0x3df15bc5	0.11785082
199	0x3e01cfab	0.12676875
200	0xbd9bc98d	-0.07606802
201	0x3bdda367	0.006763864
202	0xbe0a0edf	-0.13482235
203	0xbdcc8380	-0.09986019
204	0xbe3ed454	-0.18635684
205	0xbac95e84	-0.0015363251
206	0xbe3e32af	-0.18574022
207	0x3d9c47f1	0.07630909
208	0x3d9a547c	0.07535645
209	0x3cabb796	0.020961564
210	0x3c722e33	0.014781523
211	0xbd573fea	-0.052551188
212	0xbb88fb66	-0.0041803597
213	0xbcd89ec4	-0.026442893
214	0x3d90f657	0.070782356
215	0xbd75e8bc	-0.060036406
216	0xbd7b3510	-0.0613299
217	0x3dee0f1f	0.11623978
218	0x3e24ec51	0.16105773
219	0xbde54f94	-0.11196819
220	0x3d8e1ed9	0.069394775
221	0x3e12e9da	0.1434702
222	0x3d786008	0.060638458
223	0xbd6935f8	-0.056936234
224	0xbd0450de	-0.032303683
225	0xbe4223b3	-0.1895893
226	0xbc3d9b0e	-0.011572612
227	0x3dc1e65f	0.09467768
228	0xbcd3a4ce	-0.025835421
229	0xbd198b52	-0.03748638
230	0xbd6348af	-0.05548924
231	0x3ac187f6	0.0014765251
232	0xbe0a69a5	-0.13516863
233	0x3e1282f3	0.14307766
234	0xbd6d96c9	-0.058005128
235	0xbdd24f3c	-0.10269019
236	0x3d238c36	0.039928637
237	0x3bf676dc	0.0075214934
238	0xbe625aef	-0.22105001
239	0x3d8eed34	0.06978837
240	0xbd71b03e	-0.05900597
241	0xbd428463	-0.047489535
242	0xbd325f66	-0.04354801
243	0x3e169650	0.14705777
244	0xbd0a1ca0	-0.033718705
245	0xbe4f9431	-0.20271374
246	0xbced4212	-0.028962169
247	0x3d7eeb1e	0.062235944
248	0xbd774cd1	-0.060375992
249	0x3e3612a3	0.17780547
250	0x3d905c38	0.07048839
251	0xbd33c22d	-0.043886352
252	0x3dbcbc47	0.092155986
253	0x3dc050a3	0.0939038
254	0x3c8146ca	0.015780825
255	0xbd3caa52	-0.046060868

conv2.lin_l.bias f4 [32]
0	0x3f0d6333	0.5522949
1	0xbf5adfbe	-0.85497653
2	0x3ec3594d	0.3815407
3	0xbf56019e	-0.8359622
4	0xbe9baca3	-0.3040515
5	0xbea19884	-0.31561673
6	0xbfcdabca	-1.6068051
7	0xbe7c257d	-0.24623676
8	0xbf324e38	-0.696506
9	0xbe6b4eeb	-0.22979324
10	0x3e946b18	0.28987956
11	0x3eb1d239	0.347307
12	0x3dc2aed3	0.09506001
13	0xbeff2016	-0.49829167
14	0xbe78800a	-0.24267593
15	0x3ed2e149	0.41187504
16	0xbe8043c4	-0.250517
17	0xbe5a563b	-0.21321957
18	0xbf0e279b	-0.55529183
19	0x3e8222d6	0.25417203
20	0x3df5d4c4	0.120034724
21	0xbf634e83	-0.88791674
22	0x3dc852f4	0.09781447
23	0xbed44f93	-0.4146696
24	0x3f021835	0.50818187
25	0x3f43a475	0.76422817
26	0x3f4fe9f1	0.8121634
27	0x3ef83c04	0.48483288
28	0xbebb39b8	-0.36567473
29	0x3d5b3892	0.053520747
30	0xbcb95075	-0.022621373
31	0xbeae7b55	-0.3407847

conv2.lin_r.weight f4 [32, 32]
0	0x3d5d0783	0.05396224
1	0x3dd6ee35	0.10494653
2	0x3d863c97	0.06554525
3	0xbd4e9fa3	-0.05044521
4	0xbce9d6fa	-0.028544892
5	0xbe26ccad	-0.16289015
6	0xbd4e4989	-0.050363097
7	0xbe0745df	-0.13210247
8	0x3e03e33b	0.1287965
9	0x3d2d2b22	0.042277463
10	0x3c2a739e	0.010403542
11	0x3cb22ba1	0.02174932
12	0xbe15cf16	-0.14629778
13	0x3e0034e4	0.12520176
14	0xbe5f969b	-0.21834795
15	0xbe1d6248	-0.15369523
16	0xbcd68244	-0.026185162
17	0xbdc16cbd	-0.09444568
18	0xbc2ade36	-0.010428956
19	0xbe11b558	-0.14229333
20	0x3d9bfb64	0.07616308
21	0xbe50fab5	-0.20408137
22	0x3e013eff	0.12621687
23	0x3e15dffa	0.14636222
24	0xbcbd75fc	-0.023127548
25	0x3e716ce2	0.23576692
26	0xbdbd0d50	-0.09231055
27	0x3cfe6179	0.031052338
28	0x3db24307	0.08704191
29	0x3d688118	0.05676374
30	0x3d81b030	0.06332433
31	0x3e253905	0.16135032
32	0x3d3e9c46	0.046535753
33	0x3e3a5ba2	0.18199018
34	0x3e82b60d	0.2552952
35	0x3d40ff64	0.04711856
36	0xbcd8348a	-0.02639224
37	0x3d789c54	0.06069596
38	0xbde7fa41	-0.11327029
39	0xbcb32617	-0.021868749
40	0xbdfb2cae	-0.12264381
41	0x3ced4c35	0.028967002
42	0xbdad30a3	-0.08456542
43	0xbe0a355b	-0.13496916
44	0x3e72488d	0.23660488
45	0x3e3a559e	0.18196723
46	0xbdd80594	-0.10547939
47	0x3e0ae492	0.13563755
48	0x3e290cd2	0.16508797
49	0x3e399efc	0.18127054
50	0xbd000551	-0.03125507
51	0xbce13825	-0.027492592
52	0x3e10609f	0.14099358
53	0xbde2fd4a	-0.11083467
54	0x3d770c1e	0.06031429
55	0x3e5d8d68	0.21635973
56	0xbc7a22b3	-0.015267062
57	0x3e46c505	0.19411094
58	0xbc3bba94	-0.011458058
59	0xbe230da9	-0.1592318
60	0xbe348fa2	-0.17632917
61	0x3d55a5c6	0.052160047
62	0xbe13a185	-0.14417084
63	0x3e1366f0	0.14394736
64	0xbd8323af	-0.064032905
65	0x3e2a7d42	0.16649345
66	0xbd8fae58	-0.07015675
67	0x3dce976e	0.10087477
68	0x3dc8509d	0.09781001
69	0xbde3c27d	-0.1112108
70	0x3e228cca	0.1587402
71	0xbd8a9748	-0.06767136
72	0xbe93d9cd	-0.28877106
73	0x3cf18a94	0.029485025
74	0xbd6711a2	-0.0564133
75	0xbe30624a	-0.17224994
76	0xbd99431f	-0.074835055
77	0xbce12a5d	-0.02748602
78	0x3d88b119	0.06674404
79	0x3d720f84	0.059096828
80	0x3e0a0c69	0.13481297
81	0xbd93d591	-0.07218469
82	0xbd70358b	-0.058644813
83	0x3e2133a0	0.1574235
84	0x3e54b706	0.20772943
85	0xbdf76686	-0.12080102
86	0xbe2876c0	-0.1645155
87	0x3e3076b4	0.17232782
88	0xbd66f068	-0.056381613
89	0x3e4a39b6	0.19748577
90	0x3c65cf18	0.014026426
91	0x3acfe4df	0.0015861056
92	0xbe80f3b3	-0.25185928
93	0xbcdbfca3	-0.026853865
94	0x3d2d8bc6	0.042369626
95	0x3de83c90	0.113396764
96	0xbe10396d	-0.14084406
97	0x3c0748f3	0.008257139
98	0xbad66e0f	-0.0016359704
99	0x3d087491	0.03331429
100	0x3d3b1a86	0.04567959
101	0x3dd1db72	0.10246934
102	0x3ea722c2	0.32643706
103	0x3e22744a	0.15864673
104	0xbe0e0d92	-0.13872364
105	0x3ce2883b	0.02765285
106	0xbe266b37	-0.16251837
107	0x3c89d1dd	0.016823703
108	0xbce2ccf9	-0.02768563
109	0x3ebb05de	0.36527914
110	0xbd730e3a	-0.05933974
111	0xbdabd51f	-0.08390259
112	0xbcf55661	-0.029948415
113	0x3e9f177b	0.31072602
114	0xbe2c15f3	-0.16805248
115	0x3dfc67ac	0.12324461
116	0x3e058458	0.13038766
117	0xbddc7c5e	-0.10765909
118	0x3e238b7b	0.15971176
119	0x3e48a8b3	0.19595604
120	0xbd0d03e0	-0.034427524
121	0xbc7f832c	-0.015595239
122	0x3d6afceb	0.057370108
123	0x3e07e63c	0.13271421
124	0xbdc52136	-0.09625475
125	0x3dd13299	0.10214729
126	0x3df48bf6	0.11940758
127	0xbd5a99cc	-0.05336933
128	0xbdbfc76d	-0.09364209
129	0xbdea3cd0	-0.1143738
130	0x3e59a410	0.21253991
131	0xbd29d7dc	-0.041465625
132	0x3e000c0c	0.12504596
133	0x3d05a138	0.032624453
134	0xbb4d6df1	-0.0031346048
135	0xbe72f701	-0.23727037
136	0x3ddd7eb9	0.10815186
137	0x3dbac8d7	0.091203384
138	0xbd105760	-0.035239577
139	0xbdc86b1c	-0.097860545
140	0xbd90cff1	-0.07070912
141	0xbc904d24	-0.017614909
142	0x3dbfb5b4	0.09360829
143	0xbd41c7d6	-0.04730972
144	0xbd1bff90	-0.03808552
145	0x3db0557d	0.086100556
146	0xbdb4cdef	-0.08828341
147	0xbc8420d7	-0.01612894
148	0x3e261390	0.162184
149	0x3e2202a5	0.15821321
150	0x3d6db3a8	0.05803266
151	0xbdc567da	-0.09638949
152	0x3e254c32	0.16142347
153	0xbd53d4cd	-0.051716615
154	0x3d2a1c14	0.041530684
155	0xbda71f96	-0.081603214
156	0xbe6da1b0	-0.2320621
157	0x3de7a2d0	0.11310351
158	0xbd97e159	-0.074160285
159	0xbe1e0b48	-0.15433991
160	0xbd7311f6	-0.0593433
161	0xbde00ddd	-0.10940144
162	0xbccb0e28	-0.024787024
163	0x3bfeed11	0.0077797254
164	0x3dd22769	0.10261423
165	0xbe3181a6	-0.17334613
166	0x3e2b06b3	0.16701774
167	0xbd4ea86f	-0.0504536
168	0x3e22c0bf	0.1589384
169	0xbd397ec7	-0.04528692
170	0xbe0a28eb	-0.13492171
171	0xbd8126ec	-0.06306252
172	0x3d2c9d01	0.042141918
173	0x3e9c931c	0.30580986
174	0x3d5cc88e	0.0539022
175	0x3db4995b	0.08818313
176	0xbc27ea24	-0.010248695
177	0x3cf086f0	0.029361218
178	0x3d969953	0.07353463
179	0x3a0a4b2f	0.00052754855
180	0xbd81747c	-0.06321046
181	0x3dc43b54	0.095816284
182	0xbe5ed850	-0.21762204
183	0x3d8f247c	0.06989381
184	0x3d896a1b	0.06709691
185	0xbe33e7fe	-0.17568967
186	0xbb5a2fd8	-0.0033292677
187	0x3dd8fd47	0.10595184
188	0xbe5a3e8e	-0.21312925
189	0x3ca1eb08	0.019765392
190	0xbdf30d92	-0.11867823
191	0x3e1031be	0.14081475
192	0x3ca7dc34	0.020490743
193	0x3ddba211	0.10724271
194	0x3e2bdd6a	0.16783682
195	0xbab67091	-0.0013919045
196	0x3d26e92b	0.04074971
197	0x3e25e74a	0.16201511
198	0x3ddc915b	0.10769912
199	0x3de31a61	0.11089016
200	0xbcd9e8f2	-0.026600335
201	0x3e3b8ca0	0.18315363
202	0xbe369534	-0.17830354
203	0x3e274dba	0.16338244
204	0x3cd0270f	0.02540925
205	0xbc3b1c6d	-0.011420351
206	0xbe3f76ed	-0.1869771
207	0xbba38439	-0.0049901274
208	0x3e0a3d7e	0.1350002
209	0xbe04a71f	-0.12954377
210	0xbd4fc442	-0.050724275
211	0xbd4ec092	-0.050476618
212	0x3e46cfd1	0.19415213
213	0xbdbf1711	-0.093305714
214	0xbd75be6b	-0.05999605
215	0xbe1dd454	-0.15413028
216	0x3e1d5c90	0.15367341
217	0xbd7ae788	-0.06125596
218	0x3d3ef00e	0.046615653
219	0xbe886e98	-0.26646876
220	0xbe7af91b	-0.24509089
221	0x3e1e3b3e	0.15452287
222	0x3e02839d	0.12745519
223	0x3e31ca73	0.17362384
224	0xbea5be2d	-0.32371655
225	0x3d713497	0.058888044
226	0xbd90fdd0	-0.07079661
227	0x3d873e70	0.06603706
228	0xbdc0fb78	-0.09422964
229	0x3d8cebfa	0.068809465
230	0x3c2ff471	0.010739432
231	0xbdc2d963	-0.095141195
232	0xbcebe99d	-0.028797919
233	0x3d809f05	0.062803306
234	0x3b8fd1c2	0.0043890188
235	0x3e0c5658	0.13704813
236	0x3e0b5ad6	0.1360887
237	0x3e8303d5	0.2558886
238	0x3e4e0635	0.20119555
239	0x3c929ca0	0.01789695
240	0x3abff58d	0.0014645323
241	0x3d9fb16d	0.07797513
242	0x3bcd16a5	0.006258803
243	0x3e1900b1	0.1494167
244	0x3da96af4	0.08272353
245	0x3daa8d0a	0.08327682
246	0x3e104ecb	0.14092557
247	0xbd0a8445	-0.03381755
248	0x3dd51144	0.10403684
249	0xbe0c8076	-0.13720879
250	0xbded4e39	-0.115871854
251	0x3d22dcfb	0.039761525
252	0xbe7cbf08	-0.24682248
253	0xbce65a26	-0.028119158
254	0x3adc50df	0.001680877
255	0xbc2853bf	-0.010273873

mlp3.0.weight f4 [32, 32]
0	0x3e07009f	0.1318383
1	0x3df84630	0.12122762
2	0xbe955f17	-0.2917411
3	0x3de5b08c	0.11215314
4	0x3db10bfb	0.08644863
5	0xbd985f47	-0.07440048
6	0x3d54d3d2	0.05195982
7	0xbe521723	-0.20516638
8	0xbdb368a7	-0.08760195
9	0x3ca3f308	0.020013347
10	0x3d26ecb2	0.040753074
11	0xbe19c54e	-0.15016672
12	0x3e106ffb	0.14105217
13	0x3e3fae87	0.1871892
14	0xbd7f6834	-0.062355235
15	0x3d89826d	0.0671433
16	0xbe50363b	-0.20333187
17	0x3dec7a9e	0.11546825
18	0x3be47926	0.00697245
19	0x3e78fe30	0.24315715
20	0x3e5fa33e	0.21839616
21	0xbc15185c	-0.009100046
22	0x3dc4745f	0.095925085
23	0x3d84dd13	0.06487479
24	0x3dfdb190	0.12387383
25	0x3e512e60	0.20427847
26	0x3dc9b90e	0.098497495
27	0x3e029137	0.12750708
28	0x3c7d9520	0.015477449
29	0x3e622f7a	0.22088423
30	0x3d8d986c	0.06913838
31	0xbd18eff4	-0.037338212
32	0xbceb3586	-0.028712045
33	0x3ea65375	0.32485548
34	0x3e3cd504	0.18440634
35	0x3d123d1a	0.035702802
36	0xbd195c55	-0.03744157
37	0xbbb2ca42	-0.00545624
38	0xbcc530b4	-0.024071075
39	0x3d8df4d0	0.0693146
40	0xbe30abbe	-0.17253014
41	0xbd719bcf	-0.05898648
42	0xbdd5c3cb	-0.10437735
43	0x3d3df370	0.04637474
44	0x3e01c117	0.12671314
45	0xbe15fbc6	-0.14646825
46	0x3d901d48	0.07036835
47	0xbb44557b	-0.0029958177
48	0xbc895c22	-0.016767565
49	0x3db67b3e	0.08910225
50	0xbdb3a5f1	-0.08771885
51	0x3e435d54	0.1907857
52	0x3cc7eee0	0.024405897
53	0xbe2ed6c7	-0.17074119
54	0xbdeb4a86	-0.114888236
55	0x3dd7e310	0.105413556
56	0x3bda9d13	0.0066715567
57	0x3c342a91	0.010996477
58	0xbb44afa5	-0.003001192
59	0xbdd8ec0d	-0.10591898
60	0xbd3769b4	-0.04477854
61	0xbd47b082	-0.048752315
62	0xbe0304cb	-0.12794797
63	0xbda4488b	-0.08021649
64	0x3e0f7a5a	0.14011517
65	0xbe71b6ae	-0.23604843
66	0xbc643671	-0.0139289955
67	0xbd90e188	-0.07074267
68	0xbcf624db	-0.030046871
69	0xbc604f9b	-0.013690854
70	0x3d6047c6	0.05475595
71	0xbe8e3294	-0.27772963
72	0xbdbced09	-0.09224898
73	0xbd944595	-0.07239834
74	0xbe81985b	-0.2531155
75	0x3cd7064b	0.026248118
76	0x3e04fe8f	0.12987731
77	0x3e1ec03f	0.15503024
78	0x3d300f79	0.042983506
79	0x3cd28ee5	0.025702903
80	0x3b8c7c71	0.0042872955
81	0xbd87211b	-0.06598111
82	0x3e93a668	0.28837895
83	0xbd805836	-0.06266825
84	0x3dbe904b	0.093048654
85	0xbe5343c3	-0.20631318
86	0xbce16118	-0.027512118
87	0x3d42d3a3	0.047565114
88	0xbe34ad22	-0.1764417
89	0x3d43cc4b	0.04780225
90	0xbcb34c1d	-0.02188688
91	0x3e3b795d	0.18308015
92	0x3e301f1a	0.17199364
93	0x3ded3c6c	0.1158379
94	0xbd3e6fb0	-0.046493232
95	0xbe5ab119	-0.2135662
96	0x3e1b0bc3	0.15141205
97	0xbbf38eae	-0.00743278
98	0xbd329fb5	-0.04360934
99	0xbcf231cd	-0.029564762
100	0xbdca002f	-0.09863316
101	0x3e284bef	0.16435216
102	0xbca9870f	-0.020694284
103	0x3d11dbdc	0.035610065
104	0xbe082679	-0.13295926
105	0xbe34866e	-0.17629406
106	0x3ddd634a	0.108099535
107	0x3bbbaab1	0.005727135
108	0x3e2cfa53	0.16892366
109	0xbd730bdd	-0.059337486
110	0xbd3c2404	-0.045932785
111	0xbc355a7b	-0.0110689355
112	0x3db49103	0.08816721
113	0xbe3b2d06	-0.18278894
114	0x3dbe9b01	0.093069084
115	0x3ce1f3e5	0.027582118
116	0x3d684f4a	0.05671624
117	0xbde56a7b	-0.1120195
118	0xbd819c0e	-0.06328593
119	0x3e2aacff	0.16667555
120	0xbdf870a5	-0.1213086
121	0xbe068989	-0.13138403
122	0xbd627a09	-0.055292163
123	0x3e3cf0d5	0.18451245
124	0x3de724f6	0.112863466
125	0xbde7deba	-0.113217786
126	0x3d28f999	0.04125366
127	0xbd41ebef	-0.047344144
128	0x3e889db4	0.26682818
129	0x3cb2d21d	0.021828705
130	0xbd1b8c14	-0.037975386
131	0xbe0891d7	-0.13336883
132	0xbe33efdd	-0.1757197
133	0x3b73ecbe	0.0037219967
134	0xbe0a0f7a	-0.13482466
135	0xbe75a2b3	-0.23987846
136	0x3d3e4948	0.046456605
137	0xbdb84d5c	-0.0899913
138	0xbe3184ca	-0.17335811
139	0x3de2cfa9	0.11074764
140	0xbb9fc644	-0.00487593
141	0x3de54f44	0.11196759
142	0x3c9d3b46	0.019193303
143	0x3d4f0c82	0.050549038
144	0xbcdaf2e1	-0.026727142
145	0x3c1660bc	0.009178337
146	0x3e0e2781	0.13882257
147	0x3d6ac4da	0.05731664
148	0xbc2776c7	-0.01022119
149	0xbe552e2b	-0.20818393
150	0x3c235edf	0.0099713495
151	0x3d28fd0d	0.041256953
152	0xbe08bd31	-0.13353421
153	0x3d8b5e1e	0.06805061
154	0xbcb79b4e	-0.022412922
155	0x3e3301ea	0.17481199
156	0x3e1f5dab	0.15563075
157	0xbe643c23	-0.22288565
158	0xbc3031cc	-0.01075406
159	0xbe3a11fe	-0.18170926
160	0x3e3378b3	0.17526512
161	0x3dec2c47	0.11531883
162	0x3d97d4f8	0.074136674
163	0x3dbb03f6	0.09131615
164	0x3de7b954	0.113146454
165	0x3b7c0ec4	0.003846095
166	0x3b8d5741	0.00431338
167	0x3b482c10	0.0030543841
168	0xbe1f1c27	-0.15538083
169	0x3e22791c	0.15866512
170	0xbdfa169f	-0.12211346
171	0x3e557cde	0.20848414
172	0xbdbe403f	-0.09289598
173	0x3d4daaf5	0.050211865
174	0x3deece4b	0.11660441
175	0x3e32eb19	0.17472495
176	0x3e3e87f1	0.18606545
177	0xbcbd0f0b	-0.023078462
178	0xbc233df2	-0.009963499
179	0x3c93b59e	0.018030938
180	0x3db5ad54	0.0887095
181	0xbd773edd	-0.060362685
182	0xbe450c26	-0.19242916
183	0xbde123fd	-0.10993192
184	0x3dbe4339	0.092901655
185	0xbd17a052	-0.037018128
186	0xbd5ab996	-0.053399645
187	0xbd84596c	-0.06462368
188	0xbe000f9e	-0.12505957
189	0x3ba92d8e	0.0051629012
190	0x3e2fd85e	0.17172381
191	0xbdd47835	-0.1037449
192	0x3e21278f	0.15737747
193	0xbe2c62c4	-0.16834551
194	0xbe012465	-0.1261154
195	0x3d4e5e3e	0.050382845
196	0xbca6558e	-0.020304468
197	0xbd7173ba	-0.058948256
198	0xbd746d90	-0.0596748
199	0xbdfea0cd	-0.12433014
200	0xbd35bfab	-0.044372242
201	0xbdd7f0d8	-0.10543984
202	0xbe7b19d3	-0.2452157
203	0xbd6514d1	-0.055928055
204	0xbba4cb5e	-0.005029126
205	0x3c44fd6f	0.012023314
206	0x3ccadf36	0.024764638
207	0xbd15057c	-0.036382183
208	0xbcc04e59	-0.02347486
209	0xbe1638ee	-0.14670154
210	0x3e399846	0.18124494
211	0xba86dc7b	-0.0010289097
212	0x3cd2a2fa	0.025712479
213	0xbc8b7c88	-0.017027155
214	0xbe20b989	-0.15695776
215	0x3d2d4311	0.042300288
216	0xbd9c69d4	-0.076373726
217	0x3dc08575	0.09400455
218	0xbd72a0cd	-0.059235383
219	0x3e221bd5	0.1583093
220	0x3e3304f9	0.17482366
221	0x3ce956a8	0.028483704
222	0xbe105197	-0.14093624
223	0xbe4b0c44	-0.19828898
224	0x3e8a3a1c	0.2699746
225	0xbde1b70f	-0.11021244
226	0xbde05ee8	-0.10955602
227	0xbce1ae25	-0.027548859
228	0xbcc8bea9	-0.024504976
229	0x3becc590	0.0072256997
230	0xbeaa25e9	-0.33232048
231	0xbdb9603d	-0.09051559
232	0xbe00bf11	-0.12572886
233	0xbd037b25	-0.03209986
234	0x3e071776	0.13192543
235	0xbd338810	-0.04383093
236	0xbd0843f1	-0.03326792
237	0xbe2d2210	-0.16907525
238	0x3e124635	0.14284594
239	0x3d33a6ec	0.04386036
240	0x3c6a02db	0.014282907
241	0xbe2b255e	-0.16713473
242	0x3d7aff81	0.061278824
243	0x3de6935a	0.11258574
244	0xbe007516	-0.12544665
245	0x3d8d02df	0.06885313
246	0xbdcf2366	-0.101141736
247	0xbd5fa16a	-0.054597296
248	0xbdf91995	-0.121630825
249	0xbbaf1591	-0.005343147
250	0xbd952c55	-0.07283846
251	0x3e4187fa	0.18899527
252	0x3dfbebdc	0.12300846
253	0xbc84964a	-0.016184945
254	0xbdb2bf27	-0.08727866
255	0x3c3bd402	0.011464121

mlp3.0.bias f4 [32]
0	0x3cff753b	0.03118383
1	0xbe74611c	-0.2386517
2	0xbdbbc84a	-0.091690615
3	0xbdd51ea2	-0.10406233
4	0x3d8905e5	0.066905774
5	0xbe8aede8	-0.27134633
6	0x3db0b68a	0.086285666
7	0xbb1d701a	-0.0024023117
8	0xbe0f93f4	-0.14021283
9	0xbf039576	-0.51399934
10	0x3dbdb40c	0.09262857
11	0x3e9b69f5	0.30354276
12	0x3c85dd50	0.016340882
13	0xbeb2d2eb	-0.34926543
14	0x3d982fe9	0.07431013
15	0x3e4e6975	0.20157416
16	0x3db902d1	0.0903374
17	0xbdbddf53	-0.09271111
18	0x3ddf664e	0.10908185
19	0x3d54c0fb	0.051941853
20	0x3e659809	0.22421278
21	0x3d8fa5e3	0.07014062
22	0x3dc4be46	0.09606604
23	0xbe9ae882	-0.30255514
24	0x3dc238c4	0.094834834
25	0x3e8a7c34	0.27047884
26	0x3e608991	0.21927477
27	0xbcc3671a	-0.023852874
28	0x3e8a1f39	0.26976946
29	0x3b7cee0b	0.0038594033
30	0xbe2b839d	-0.16749425
31	0xbee74544	-0.45170033

mlp4.weight f4 [1, 32]
0	0x3ec45af8	0.38350654
1	0xbe130305	-0.1435662
2	0x3e7b2c18	0.24528539
3	0x3e48d584	0.196127
4	0x3e48ae55	0.19597752
5	0xbe036eb7	-0.12835203
6	0x3e46e0b0	0.19421649
7	0x3da7490c	0.081682295
8	0xbe48cb80	-0.19608879
9	0xbdfe0d41	-0.12404872
10	0xbe4f1b6e	-0.20225307
11	0xbe3300ad	-0.17480727
12	0x3dd2ab2c	0.10286555
13	0xbde90660	-0.11378169
14	0x3de45d68	0.11150628
15	0x3e1b788c	0.15182704
16	0x3da561ca	0.080752924
17	0xbe210c33	-0.1572731
18	0x3e1f8607	0.15578471
19	0x3e181e7c	0.14855379
20	0x3dd45d8b	0.103694044
21	0x3e1d993f	0.1539049
22	0x3e00c2eb	0.12574355
23	0xbdd8935e	-0.10574983
24	0x3db6df13	0.08929267
25	0xbe1bd2fc	-0.15217203
26	0x3e610f9d	0.21978612
27	0x3eb68086	0.3564493
28	0xbe113cf3	-0.14183407
29	0x3dff0582	0.124522224
30	0x3e51a404	0.20472723
31	0xbd8ebb44	-0.06969312
